…
Two other basic features of Keras that you`ll find useful are:
	- model.summary(): prints the details of your layers in a table with the sizes of its inputs/outputs
	- plot_model(): plots your graph in a nice layout. You can even save it as ".png" using SVG() if you`d like to share it on social media ;). It is saved in "File" then "Open..." in the upper bar of the notebook.
	happyModel.summary()
>>>________________________________________________________________
Layer (type)                 Output Shape              Param #   
=================================================================
input_3 (InputLayer)         (None, 64, 64, 3)         0         
_________________________________________________________________
zero_padding2d_3 (ZeroPaddin (None, 70, 70, 3)         0         
_________________________________________________________________
conv0 (Conv2D)               (None, 64, 64, 32)        4736      
_________________________________________________________________
bn0 (BatchNormalization)     (None, 64, 64, 32)        128       
_________________________________________________________________
activation_1 (Activation)    (None, 64, 64, 32)        0         
_________________________________________________________________
max_pool (MaxPooling2D)      (None, 32, 32, 32)        0         
_________________________________________________________________
flatten_1 (Flatten)          (None, 32768)             0         
_________________________________________________________________
fc (Dense)                   (None, 1)                 32769     
=================================================================
Total params: 37,633
Trainable params: 37,569
Non-trainable params: 64
_________________________________________________________________


plot_model(happyModel, to_file='HappyModel.png')
SVG(model_to_dot(happyModel).create(prog='dot', format='svg'))


NOTEBOOK: RESIDUAL NETWORKS
In this assignment, you will:
	Implement the basic building blocks of ResNets.
…
